…
Loading processed data from data/driving_udacity/gaia/train/8.npz...
Images:  (2960, 1, 200, 200)
Ground truths:  (2960,)
Done!
	 + Loading: > driving_udacity < dataset from: data/driving_udacity/gaia/train/9.npz
Loading processed data from data/driving_udacity/gaia/train/9.npz...
Images:  (1579, 1, 200, 200)
Ground truths:  (1579,)
Done!
	 + Loading: > driving_udacity < dataset from: data/driving_udacity/gaia/train/10.npz
Loading processed data from data/driving_udacity/gaia/train/10.npz...
Images:  (3388, 1, 200, 200)
Ground truths:  (3388,)
Done!
>>>>>>>>>> Network Architecture
FadNet(
  (conv1): Conv2d(1, 32, kernel_size=(5, 5), stride=(2, 2))
  (max_pool1): MaxPool2d(kernel_size=(3, 3), stride=2, padding=0, dilation=1, ceil_mode=False)
  (res_block1): Sequential(
    (batch_norm): BatchNorm2d(32, eps=1e-05, momentum=0.1, affine=True, track_running_stats=True)
    (relu): ReLU()
    (conv2d): Conv2d(32, 32, kernel_size=(3, 3), stride=(2, 2))
    (batch_norm_1): BatchNorm2d(32, eps=1e-05, momentum=0.1, affine=True, track_running_stats=True)
    (relu_1): ReLU()
    (conv2d_2): Conv2d(32, 32, kernel_size=(3, 3), stride=(1, 1))
  )
  (conv2): Conv2d(32, 256, kernel_size=(1, 1), stride=(7, 7))
  (res_block2): Sequential(
    (batch_norm): BatchNorm2d(32, eps=1e-05, momentum=0.1, affine=True, track_running_stats=True)
    (relu): ReLU()
    (conv2d): Conv2d(32, 64, kernel_size=(3, 3), stride=(2, 2))
    (batch_norm_1): BatchNorm2d(64, eps=1e-05, momentum=0.1, affine=True, track_running_stats=True)
    (relu_1): ReLU()
    (conv2d_2): Conv2d(64, 64, kernel_size=(3, 3), stride=(1, 1))
  )
  (conv3): Conv2d(32, 256, kernel_size=(1, 1), stride=(4, 4))
  (res_block3): Sequential(
    (batch_norm): BatchNorm2d(64, eps=1e-05, momentum=0.1, affine=True, track_running_stats=True)
    (relu): ReLU()
    (conv2d): Conv2d(64, 128, kernel_size=(3, 3), stride=(2, 2))
    (batch_norm_1): BatchNorm2d(128, eps=1e-05, momentum=0.1, affine=True, track_running_stats=True)
    (relu_1): ReLU()
    (conv2d_2): Conv2d(128, 128, kernel_size=(3, 3), stride=(1, 1))
  )
  (conv4): Conv2d(64, 256, kernel_size=(1, 1), stride=(2, 2))
  (dropout): Dropout2d(p=0.5, inplace=False)
  (relu): ReLU()
  (fc_feature): Linear(in_features=3, out_features=1, bias=True)
  (fc): Linear(in_features=6272, out_features=1, bias=True)
)
nParams=	336709
>>>>>>>>>> Evaluating
	 - train set
	 - test set
	 Round: 0 |Train Loss: 0.38826 |Train RMSE: 0.61451 |Eval-train Time: 6.185
	 -----: 0 |Test  Loss: 0.39324 |Test  RMSE: 0.56244 |Eval-test  Time: 0.994
	 -----: Time: 15.765
	 -----: Total Time: 15.765
Round: 0 |Train Time: 0.352
Round: 100 |Train Time: 43.403
>>>>>>>>>> Evaluating
	 - train set
…
