…
Parameter res_block3.conv2d.bias: torch.float32
Parameter res_block3.batch_norm_1.weight: torch.float32
Parameter res_block3.batch_norm_1.bias: torch.float32
Parameter res_block3.conv2d_2.weight: torch.float32
Parameter res_block3.conv2d_2.bias: torch.float32
Parameter conv4.weight: torch.float32
Parameter conv4.bias: torch.float32
Parameter conv4_support.weight: torch.float32
Parameter conv4_support.bias: torch.float32
Parameter fc.weight: torch.float32
Parameter fc.bias: torch.float32
Parameter fc_accumulation.weight: torch.float32
Parameter fc_accumulation.bias: torch.float32
>>>>>>>>>> Network Architecture
FADNet(
  (conv1): Conv2d(1, 32, kernel_size=(5, 5), stride=(2, 2))
  (max_pool1): MaxPool2d(kernel_size=(3, 3), stride=2, padding=0, dilation=1, ceil_mode=False)
  (res_block1): Sequential(
    (batch_norm): BatchNorm2d(32, eps=1e-05, momentum=0.1, affine=True, track_running_stats=True)
    (relu): ReLU()
    (conv2d): Conv2d(32, 32, kernel_size=(3, 3), stride=(2, 2))
    (batch_norm_1): BatchNorm2d(32, eps=1e-05, momentum=0.1, affine=True, track_running_stats=True)
    (relu_1): ReLU()
    (conv2d_2): Conv2d(32, 32, kernel_size=(3, 3), stride=(1, 1))
  )
  (conv2): Conv2d(32, 32, kernel_size=(1, 1), stride=(2, 2))
  (conv2_support): Conv2d(32, 256, kernel_size=(1, 1), stride=(7, 7))
  (res_block2): Sequential(
    (batch_norm): BatchNorm2d(32, eps=1e-05, momentum=0.1, affine=True, track_running_stats=True)
    (relu): ReLU()
    (conv2d): Conv2d(32, 64, kernel_size=(3, 3), stride=(2, 2))
    (batch_norm_1): BatchNorm2d(64, eps=1e-05, momentum=0.1, affine=True, track_running_stats=True)
    (relu_1): ReLU()
    (conv2d_2): Conv2d(64, 64, kernel_size=(3, 3), stride=(1, 1))
  )
  (conv3): Conv2d(32, 64, kernel_size=(1, 1), stride=(2, 2))
  (conv3_support): Conv2d(32, 256, kernel_size=(1, 1), stride=(4, 4))
  (res_block3): Sequential(
    (batch_norm): BatchNorm2d(64, eps=1e-05, momentum=0.1, affine=True, track_running_stats=True)
    (relu): ReLU()
    (conv2d): Conv2d(64, 128, kernel_size=(3, 3), stride=(2, 2))
    (batch_norm_1): BatchNorm2d(128, eps=1e-05, momentum=0.1, affine=True, track_running_stats=True)
    (relu_1): ReLU()
    (conv2d_2): Conv2d(128, 128, kernel_size=(3, 3), stride=(1, 1))
  )
  (conv4): Conv2d(64, 128, kernel_size=(1, 1), stride=(2, 2))
  (conv4_support): Conv2d(64, 256, kernel_size=(1, 1), stride=(2, 2))
  (fc): Linear(in_features=7, out_features=7, bias=True)
  (dropout): Dropout2d(p=0.5, inplace=False)
  (relu): ReLU()
  (fc_accumulation): Linear(in_features=3, out_features=1, bias=True)
)
nParams=	341980
loading /DATA/m23cse013/FADNet/DRIVING-GAZEBO_GAIA/FADNet/round_1000/model_global.pth
loading /DATA/m23cse013/FADNet/DRIVING-GAZEBO_GAIA/FADNet/round_1000/model_silo_0.pth
loading /DATA/m23cse013/FADNet/DRIVING-GAZEBO_GAIA/FADNet/round_1000/model_silo_1.pth
loading /DATA/m23cse013/FADNet/DRIVING-GAZEBO_GAIA/FADNet/round_1000/model_silo_2.pth
…
